name: "SRDenseNet_x4_block8_depth8_grow16"
layer {
  name: "data"
  type: "Input"
  top: "data"
  input_param {
    shape {
      dim: 1
      dim: 1
      dim: 57
      dim: 86
    }
  }
}
layer {
  name: "Convolution1"
  type: "Convolution"
  bottom: "data"
  top: "Convolution1"
  convolution_param {
    num_output: 8
    bias_term: false
    pad: 1
    kernel_size: 3
    stride: 1
    weight_filler {
      type: "msra"
    }
    bias_filler {
      type: "constant"
    }
  }
}
layer {
  name: "ReLU1"
  type: "ReLU"
  bottom: "Convolution1"
  top: "Convolution1"
}
layer {
  name: "Convolution2"
  type: "Convolution"
  bottom: "Convolution1"
  top: "Convolution2"
  convolution_param {
    num_output: 16
    bias_term: false
    pad: 1
    kernel_size: 3
    stride: 1
    weight_filler {
      type: "msra"
    }
    bias_filler {
      type: "constant"
    }
  }
}
layer {
  name: "ReLU2"
  type: "ReLU"
  bottom: "Convolution2"
  top: "Convolution2"
}
layer {
  name: "Convolution3"
  type: "Convolution"
  bottom: "Convolution2"
  top: "Convolution3"
  convolution_param {
    num_output: 16
    bias_term: false
    pad: 1
    kernel_size: 3
    stride: 1
    weight_filler {
      type: "msra"
    }
    bias_filler {
      type: "constant"
    }
  }
}
layer {
  name: "ReLU3"
  type: "ReLU"
  bottom: "Convolution3"
  top: "Convolution3"
}
layer {
  name: "Concat1"
  type: "Concat"
  bottom: "Convolution2"
  bottom: "Convolution3"
  top: "Concat1"
  concat_param {
    axis: 1
  }
}
layer {
  name: "Convolution4"
  type: "Convolution"
  bottom: "Concat1"
  top: "Convolution4"
  convolution_param {
    num_output: 16
    bias_term: false
    pad: 1
    kernel_size: 3
    stride: 1
    weight_filler {
      type: "msra"
    }
    bias_filler {
      type: "constant"
    }
  }
}
layer {
  name: "ReLU4"
  type: "ReLU"
  bottom: "Convolution4"
  top: "Convolution4"
}
layer {
  name: "Concat2"
  type: "Concat"
  bottom: "Concat1"
  bottom: "Convolution4"
  top: "Concat2"
  concat_param {
    axis: 1
  }
}
layer {
  name: "Convolution5"
  type: "Convolution"
  bottom: "Concat2"
  top: "Convolution5"
  convolution_param {
    num_output: 16
    bias_term: false
    pad: 1
    kernel_size: 3
    stride: 1
    weight_filler {
      type: "msra"
    }
    bias_filler {
      type: "constant"
    }
  }
}
layer {
  name: "ReLU5"
  type: "ReLU"
  bottom: "Convolution5"
  top: "Convolution5"
}
layer {
  name: "Concat3"
  type: "Concat"
  bottom: "Concat2"
  bottom: "Convolution5"
  top: "Concat3"
  concat_param {
    axis: 1
  }
}
layer {
  name: "Convolution6"
  type: "Convolution"
  bottom: "Concat3"
  top: "Convolution6"
  convolution_param {
    num_output: 16
    bias_term: false
    pad: 1
    kernel_size: 3
    stride: 1
    weight_filler {
      type: "msra"
    }
    bias_filler {
      type: "constant"
    }
  }
}
layer {
  name: "ReLU6"
  type: "ReLU"
  bottom: "Convolution6"
  top: "Convolution6"
}
layer {
  name: "Concat4"
  type: "Concat"
  bottom: "Concat3"
  bottom: "Convolution6"
  top: "Concat4"
  concat_param {
    axis: 1
  }
}
layer {
  name: "Convolution7"
  type: "Convolution"
  bottom: "Concat4"
  top: "Convolution7"
  convolution_param {
    num_output: 16
    bias_term: false
    pad: 1
    kernel_size: 3
    stride: 1
    weight_filler {
      type: "msra"
    }
    bias_filler {
      type: "constant"
    }
  }
}
layer {
  name: "ReLU7"
  type: "ReLU"
  bottom: "Convolution7"
  top: "Convolution7"
}
layer {
  name: "Concat5"
  type: "Concat"
  bottom: "Concat4"
  bottom: "Convolution7"
  top: "Concat5"
  concat_param {
    axis: 1
  }
}
layer {
  name: "Convolution8"
  type: "Convolution"
  bottom: "Concat5"
  top: "Convolution8"
  convolution_param {
    num_output: 16
    bias_term: false
    pad: 1
    kernel_size: 3
    stride: 1
    weight_filler {
      type: "msra"
    }
    bias_filler {
      type: "constant"
    }
  }
}
layer {
  name: "ReLU8"
  type: "ReLU"
  bottom: "Convolution8"
  top: "Convolution8"
}
layer {
  name: "Concat6"
  type: "Concat"
  bottom: "Concat5"
  bottom: "Convolution8"
  top: "Concat6"
  concat_param {
    axis: 1
  }
}
layer {
  name: "Convolution9"
  type: "Convolution"
  bottom: "Concat6"
  top: "Convolution9"
  convolution_param {
    num_output: 16
    bias_term: false
    pad: 1
    kernel_size: 3
    stride: 1
    weight_filler {
      type: "msra"
    }
    bias_filler {
      type: "constant"
    }
  }
}
layer {
  name: "ReLU9"
  type: "ReLU"
  bottom: "Convolution9"
  top: "Convolution9"
}
layer {
  name: "Concat7"
  type: "Concat"
  bottom: "Concat6"
  bottom: "Convolution9"
  top: "Concat7"
  concat_param {
    axis: 1
  }
}
layer {
  name: "Concat8"
  type: "Concat"
  bottom: "Convolution1"
  bottom: "Concat7"
  top: "Concat8"
  concat_param {
    axis: 1
  }
}
layer {
  name: "Convolution10"
  type: "Convolution"
  bottom: "Concat8"
  top: "Convolution10"
  convolution_param {
    num_output: 16
    bias_term: false
    pad: 1
    kernel_size: 3
    stride: 1
    weight_filler {
      type: "msra"
    }
    bias_filler {
      type: "constant"
    }
  }
}
layer {
  name: "ReLU10"
  type: "ReLU"
  bottom: "Convolution10"
  top: "Convolution10"
}
layer {
  name: "Convolution11"
  type: "Convolution"
  bottom: "Convolution10"
  top: "Convolution11"
  convolution_param {
    num_output: 16
    bias_term: false
    pad: 1
    kernel_size: 3
    stride: 1
    weight_filler {
      type: "msra"
    }
    bias_filler {
      type: "constant"
    }
  }
}
layer {
  name: "ReLU11"
  type: "ReLU"
  bottom: "Convolution11"
  top: "Convolution11"
}
layer {
  name: "Concat9"
  type: "Concat"
  bottom: "Convolution10"
  bottom: "Convolution11"
  top: "Concat9"
  concat_param {
    axis: 1
  }
}
layer {
  name: "Convolution12"
  type: "Convolution"
  bottom: "Concat9"
  top: "Convolution12"
  convolution_param {
    num_output: 16
    bias_term: false
    pad: 1
    kernel_size: 3
    stride: 1
    weight_filler {
      type: "msra"
    }
    bias_filler {
      type: "constant"
    }
  }
}
layer {
  name: "ReLU12"
  type: "ReLU"
  bottom: "Convolution12"
  top: "Convolution12"
}
layer {
  name: "Concat10"
  type: "Concat"
  bottom: "Concat9"
  bottom: "Convolution12"
  top: "Concat10"
  concat_param {
    axis: 1
  }
}
layer {
  name: "Convolution13"
  type: "Convolution"
  bottom: "Concat10"
  top: "Convolution13"
  convolution_param {
    num_output: 16
    bias_term: false
    pad: 1
    kernel_size: 3
    stride: 1
    weight_filler {
      type: "msra"
    }
    bias_filler {
      type: "constant"
    }
  }
}
layer {
  name: "ReLU13"
  type: "ReLU"
  bottom: "Convolution13"
  top: "Convolution13"
}
layer {
  name: "Concat11"
  type: "Concat"
  bottom: "Concat10"
  bottom: "Convolution13"
  top: "Concat11"
  concat_param {
    axis: 1
  }
}
layer {
  name: "Convolution14"
  type: "Convolution"
  bottom: "Concat11"
  top: "Convolution14"
  convolution_param {
    num_output: 16
    bias_term: false
    pad: 1
    kernel_size: 3
    stride: 1
    weight_filler {
      type: "msra"
    }
    bias_filler {
      type: "constant"
    }
  }
}
layer {
  name: "ReLU14"
  type: "ReLU"
  bottom: "Convolution14"
  top: "Convolution14"
}
layer {
  name: "Concat12"
  type: "Concat"
  bottom: "Concat11"
  bottom: "Convolution14"
  top: "Concat12"
  concat_param {
    axis: 1
  }
}
layer {
  name: "Convolution15"
  type: "Convolution"
  bottom: "Concat12"
  top: "Convolution15"
  convolution_param {
    num_output: 16
    bias_term: false
    pad: 1
    kernel_size: 3
    stride: 1
    weight_filler {
      type: "msra"
    }
    bias_filler {
      type: "constant"
    }
  }
}
layer {
  name: "ReLU15"
  type: "ReLU"
  bottom: "Convolution15"
  top: "Convolution15"
}
layer {
  name: "Concat13"
  type: "Concat"
  bottom: "Concat12"
  bottom: "Convolution15"
  top: "Concat13"
  concat_param {
    axis: 1
  }
}
layer {
  name: "Convolution16"
  type: "Convolution"
  bottom: "Concat13"
  top: "Convolution16"
  convolution_param {
    num_output: 16
    bias_term: false
    pad: 1
    kernel_size: 3
    stride: 1
    weight_filler {
      type: "msra"
    }
    bias_filler {
      type: "constant"
    }
  }
}
layer {
  name: "ReLU16"
  type: "ReLU"
  bottom: "Convolution16"
  top: "Convolution16"
}
layer {
  name: "Concat14"
  type: "Concat"
  bottom: "Concat13"
  bottom: "Convolution16"
  top: "Concat14"
  concat_param {
    axis: 1
  }
}
layer {
  name: "Convolution17"
  type: "Convolution"
  bottom: "Concat14"
  top: "Convolution17"
  convolution_param {
    num_output: 16
    bias_term: false
    pad: 1
    kernel_size: 3
    stride: 1
    weight_filler {
      type: "msra"
    }
    bias_filler {
      type: "constant"
    }
  }
}
layer {
  name: "ReLU17"
  type: "ReLU"
  bottom: "Convolution17"
  top: "Convolution17"
}
layer {
  name: "Concat15"
  type: "Concat"
  bottom: "Concat14"
  bottom: "Convolution17"
  top: "Concat15"
  concat_param {
    axis: 1
  }
}
layer {
  name: "Concat16"
  type: "Concat"
  bottom: "Concat8"
  bottom: "Concat15"
  top: "Concat16"
  concat_param {
    axis: 1
  }
}
layer {
  name: "Convolution18"
  type: "Convolution"
  bottom: "Concat16"
  top: "Convolution18"
  convolution_param {
    num_output: 16
    bias_term: false
    pad: 1
    kernel_size: 3
    stride: 1
    weight_filler {
      type: "msra"
    }
    bias_filler {
      type: "constant"
    }
  }
}
layer {
  name: "ReLU18"
  type: "ReLU"
  bottom: "Convolution18"
  top: "Convolution18"
}
layer {
  name: "Convolution19"
  type: "Convolution"
  bottom: "Convolution18"
  top: "Convolution19"
  convolution_param {
    num_output: 16
    bias_term: false
    pad: 1
    kernel_size: 3
    stride: 1
    weight_filler {
      type: "msra"
    }
    bias_filler {
      type: "constant"
    }
  }
}
layer {
  name: "ReLU19"
  type: "ReLU"
  bottom: "Convolution19"
  top: "Convolution19"
}
layer {
  name: "Concat17"
  type: "Concat"
  bottom: "Convolution18"
  bottom: "Convolution19"
  top: "Concat17"
  concat_param {
    axis: 1
  }
}
layer {
  name: "Convolution20"
  type: "Convolution"
  bottom: "Concat17"
  top: "Convolution20"
  convolution_param {
    num_output: 16
    bias_term: false
    pad: 1
    kernel_size: 3
    stride: 1
    weight_filler {
      type: "msra"
    }
    bias_filler {
      type: "constant"
    }
  }
}
layer {
  name: "ReLU20"
  type: "ReLU"
  bottom: "Convolution20"
  top: "Convolution20"
}
layer {
  name: "Concat18"
  type: "Concat"
  bottom: "Concat17"
  bottom: "Convolution20"
  top: "Concat18"
  concat_param {
    axis: 1
  }
}
layer {
  name: "Convolution21"
  type: "Convolution"
  bottom: "Concat18"
  top: "Convolution21"
  convolution_param {
    num_output: 16
    bias_term: false
    pad: 1
    kernel_size: 3
    stride: 1
    weight_filler {
      type: "msra"
    }
    bias_filler {
      type: "constant"
    }
  }
}
layer {
  name: "ReLU21"
  type: "ReLU"
  bottom: "Convolution21"
  top: "Convolution21"
}
layer {
  name: "Concat19"
  type: "Concat"
  bottom: "Concat18"
  bottom: "Convolution21"
  top: "Concat19"
  concat_param {
    axis: 1
  }
}
layer {
  name: "Convolution22"
  type: "Convolution"
  bottom: "Concat19"
  top: "Convolution22"
  convolution_param {
    num_output: 16
    bias_term: false
    pad: 1
    kernel_size: 3
    stride: 1
    weight_filler {
      type: "msra"
    }
    bias_filler {
      type: "constant"
    }
  }
}
layer {
  name: "ReLU22"
  type: "ReLU"
  bottom: "Convolution22"
  top: "Convolution22"
}
layer {
  name: "Concat20"
  type: "Concat"
  bottom: "Concat19"
  bottom: "Convolution22"
  top: "Concat20"
  concat_param {
    axis: 1
  }
}
layer {
  name: "Convolution23"
  type: "Convolution"
  bottom: "Concat20"
  top: "Convolution23"
  convolution_param {
    num_output: 16
    bias_term: false
    pad: 1
    kernel_size: 3
    stride: 1
    weight_filler {
      type: "msra"
    }
    bias_filler {
      type: "constant"
    }
  }
}
layer {
  name: "ReLU23"
  type: "ReLU"
  bottom: "Convolution23"
  top: "Convolution23"
}
layer {
  name: "Concat21"
  type: "Concat"
  bottom: "Concat20"
  bottom: "Convolution23"
  top: "Concat21"
  concat_param {
    axis: 1
  }
}
layer {
  name: "Convolution24"
  type: "Convolution"
  bottom: "Concat21"
  top: "Convolution24"
  convolution_param {
    num_output: 16
    bias_term: false
    pad: 1
    kernel_size: 3
    stride: 1
    weight_filler {
      type: "msra"
    }
    bias_filler {
      type: "constant"
    }
  }
}
layer {
  name: "ReLU24"
  type: "ReLU"
  bottom: "Convolution24"
  top: "Convolution24"
}
layer {
  name: "Concat22"
  type: "Concat"
  bottom: "Concat21"
  bottom: "Convolution24"
  top: "Concat22"
  concat_param {
    axis: 1
  }
}
layer {
  name: "Convolution25"
  type: "Convolution"
  bottom: "Concat22"
  top: "Convolution25"
  convolution_param {
    num_output: 16
    bias_term: false
    pad: 1
    kernel_size: 3
    stride: 1
    weight_filler {
      type: "msra"
    }
    bias_filler {
      type: "constant"
    }
  }
}
layer {
  name: "ReLU25"
  type: "ReLU"
  bottom: "Convolution25"
  top: "Convolution25"
}
layer {
  name: "Concat23"
  type: "Concat"
  bottom: "Concat22"
  bottom: "Convolution25"
  top: "Concat23"
  concat_param {
    axis: 1
  }
}
layer {
  name: "Concat24"
  type: "Concat"
  bottom: "Concat16"
  bottom: "Concat23"
  top: "Concat24"
  concat_param {
    axis: 1
  }
}
layer {
  name: "Convolution26"
  type: "Convolution"
  bottom: "Concat24"
  top: "Convolution26"
  convolution_param {
    num_output: 16
    bias_term: false
    pad: 1
    kernel_size: 3
    stride: 1
    weight_filler {
      type: "msra"
    }
    bias_filler {
      type: "constant"
    }
  }
}
layer {
  name: "ReLU26"
  type: "ReLU"
  bottom: "Convolution26"
  top: "Convolution26"
}
layer {
  name: "Convolution27"
  type: "Convolution"
  bottom: "Convolution26"
  top: "Convolution27"
  convolution_param {
    num_output: 16
    bias_term: false
    pad: 1
    kernel_size: 3
    stride: 1
    weight_filler {
      type: "msra"
    }
    bias_filler {
      type: "constant"
    }
  }
}
layer {
  name: "ReLU27"
  type: "ReLU"
  bottom: "Convolution27"
  top: "Convolution27"
}
layer {
  name: "Concat25"
  type: "Concat"
  bottom: "Convolution26"
  bottom: "Convolution27"
  top: "Concat25"
  concat_param {
    axis: 1
  }
}
layer {
  name: "Convolution28"
  type: "Convolution"
  bottom: "Concat25"
  top: "Convolution28"
  convolution_param {
    num_output: 16
    bias_term: false
    pad: 1
    kernel_size: 3
    stride: 1
    weight_filler {
      type: "msra"
    }
    bias_filler {
      type: "constant"
    }
  }
}
layer {
  name: "ReLU28"
  type: "ReLU"
  bottom: "Convolution28"
  top: "Convolution28"
}
layer {
  name: "Concat26"
  type: "Concat"
  bottom: "Concat25"
  bottom: "Convolution28"
  top: "Concat26"
  concat_param {
    axis: 1
  }
}
layer {
  name: "Convolution29"
  type: "Convolution"
  bottom: "Concat26"
  top: "Convolution29"
  convolution_param {
    num_output: 16
    bias_term: false
    pad: 1
    kernel_size: 3
    stride: 1
    weight_filler {
      type: "msra"
    }
    bias_filler {
      type: "constant"
    }
  }
}
layer {
  name: "ReLU29"
  type: "ReLU"
  bottom: "Convolution29"
  top: "Convolution29"
}
layer {
  name: "Concat27"
  type: "Concat"
  bottom: "Concat26"
  bottom: "Convolution29"
  top: "Concat27"
  concat_param {
    axis: 1
  }
}
layer {
  name: "Convolution30"
  type: "Convolution"
  bottom: "Concat27"
  top: "Convolution30"
  convolution_param {
    num_output: 16
    bias_term: false
    pad: 1
    kernel_size: 3
    stride: 1
    weight_filler {
      type: "msra"
    }
    bias_filler {
      type: "constant"
    }
  }
}
layer {
  name: "ReLU30"
  type: "ReLU"
  bottom: "Convolution30"
  top: "Convolution30"
}
layer {
  name: "Concat28"
  type: "Concat"
  bottom: "Concat27"
  bottom: "Convolution30"
  top: "Concat28"
  concat_param {
    axis: 1
  }
}
layer {
  name: "Convolution31"
  type: "Convolution"
  bottom: "Concat28"
  top: "Convolution31"
  convolution_param {
    num_output: 16
    bias_term: false
    pad: 1
    kernel_size: 3
    stride: 1
    weight_filler {
      type: "msra"
    }
    bias_filler {
      type: "constant"
    }
  }
}
layer {
  name: "ReLU31"
  type: "ReLU"
  bottom: "Convolution31"
  top: "Convolution31"
}
layer {
  name: "Concat29"
  type: "Concat"
  bottom: "Concat28"
  bottom: "Convolution31"
  top: "Concat29"
  concat_param {
    axis: 1
  }
}
layer {
  name: "Convolution32"
  type: "Convolution"
  bottom: "Concat29"
  top: "Convolution32"
  convolution_param {
    num_output: 16
    bias_term: false
    pad: 1
    kernel_size: 3
    stride: 1
    weight_filler {
      type: "msra"
    }
    bias_filler {
      type: "constant"
    }
  }
}
layer {
  name: "ReLU32"
  type: "ReLU"
  bottom: "Convolution32"
  top: "Convolution32"
}
layer {
  name: "Concat30"
  type: "Concat"
  bottom: "Concat29"
  bottom: "Convolution32"
  top: "Concat30"
  concat_param {
    axis: 1
  }
}
layer {
  name: "Convolution33"
  type: "Convolution"
  bottom: "Concat30"
  top: "Convolution33"
  convolution_param {
    num_output: 16
    bias_term: false
    pad: 1
    kernel_size: 3
    stride: 1
    weight_filler {
      type: "msra"
    }
    bias_filler {
      type: "constant"
    }
  }
}
layer {
  name: "ReLU33"
  type: "ReLU"
  bottom: "Convolution33"
  top: "Convolution33"
}
layer {
  name: "Concat31"
  type: "Concat"
  bottom: "Concat30"
  bottom: "Convolution33"
  top: "Concat31"
  concat_param {
    axis: 1
  }
}
layer {
  name: "Concat32"
  type: "Concat"
  bottom: "Concat24"
  bottom: "Concat31"
  top: "Concat32"
  concat_param {
    axis: 1
  }
}
layer {
  name: "Convolution34"
  type: "Convolution"
  bottom: "Concat32"
  top: "Convolution34"
  convolution_param {
    num_output: 16
    bias_term: false
    pad: 1
    kernel_size: 3
    stride: 1
    weight_filler {
      type: "msra"
    }
    bias_filler {
      type: "constant"
    }
  }
}
layer {
  name: "ReLU34"
  type: "ReLU"
  bottom: "Convolution34"
  top: "Convolution34"
}
layer {
  name: "Convolution35"
  type: "Convolution"
  bottom: "Convolution34"
  top: "Convolution35"
  convolution_param {
    num_output: 16
    bias_term: false
    pad: 1
    kernel_size: 3
    stride: 1
    weight_filler {
      type: "msra"
    }
    bias_filler {
      type: "constant"
    }
  }
}
layer {
  name: "ReLU35"
  type: "ReLU"
  bottom: "Convolution35"
  top: "Convolution35"
}
layer {
  name: "Concat33"
  type: "Concat"
  bottom: "Convolution34"
  bottom: "Convolution35"
  top: "Concat33"
  concat_param {
    axis: 1
  }
}
layer {
  name: "Convolution36"
  type: "Convolution"
  bottom: "Concat33"
  top: "Convolution36"
  convolution_param {
    num_output: 16
    bias_term: false
    pad: 1
    kernel_size: 3
    stride: 1
    weight_filler {
      type: "msra"
    }
    bias_filler {
      type: "constant"
    }
  }
}
layer {
  name: "ReLU36"
  type: "ReLU"
  bottom: "Convolution36"
  top: "Convolution36"
}
layer {
  name: "Concat34"
  type: "Concat"
  bottom: "Concat33"
  bottom: "Convolution36"
  top: "Concat34"
  concat_param {
    axis: 1
  }
}
layer {
  name: "Convolution37"
  type: "Convolution"
  bottom: "Concat34"
  top: "Convolution37"
  convolution_param {
    num_output: 16
    bias_term: false
    pad: 1
    kernel_size: 3
    stride: 1
    weight_filler {
      type: "msra"
    }
    bias_filler {
      type: "constant"
    }
  }
}
layer {
  name: "ReLU37"
  type: "ReLU"
  bottom: "Convolution37"
  top: "Convolution37"
}
layer {
  name: "Concat35"
  type: "Concat"
  bottom: "Concat34"
  bottom: "Convolution37"
  top: "Concat35"
  concat_param {
    axis: 1
  }
}
layer {
  name: "Convolution38"
  type: "Convolution"
  bottom: "Concat35"
  top: "Convolution38"
  convolution_param {
    num_output: 16
    bias_term: false
    pad: 1
    kernel_size: 3
    stride: 1
    weight_filler {
      type: "msra"
    }
    bias_filler {
      type: "constant"
    }
  }
}
layer {
  name: "ReLU38"
  type: "ReLU"
  bottom: "Convolution38"
  top: "Convolution38"
}
layer {
  name: "Concat36"
  type: "Concat"
  bottom: "Concat35"
  bottom: "Convolution38"
  top: "Concat36"
  concat_param {
    axis: 1
  }
}
layer {
  name: "Convolution39"
  type: "Convolution"
  bottom: "Concat36"
  top: "Convolution39"
  convolution_param {
    num_output: 16
    bias_term: false
    pad: 1
    kernel_size: 3
    stride: 1
    weight_filler {
      type: "msra"
    }
    bias_filler {
      type: "constant"
    }
  }
}
layer {
  name: "ReLU39"
  type: "ReLU"
  bottom: "Convolution39"
  top: "Convolution39"
}
layer {
  name: "Concat37"
  type: "Concat"
  bottom: "Concat36"
  bottom: "Convolution39"
  top: "Concat37"
  concat_param {
    axis: 1
  }
}
layer {
  name: "Convolution40"
  type: "Convolution"
  bottom: "Concat37"
  top: "Convolution40"
  convolution_param {
    num_output: 16
    bias_term: false
    pad: 1
    kernel_size: 3
    stride: 1
    weight_filler {
      type: "msra"
    }
    bias_filler {
      type: "constant"
    }
  }
}
layer {
  name: "ReLU40"
  type: "ReLU"
  bottom: "Convolution40"
  top: "Convolution40"
}
layer {
  name: "Concat38"
  type: "Concat"
  bottom: "Concat37"
  bottom: "Convolution40"
  top: "Concat38"
  concat_param {
    axis: 1
  }
}
layer {
  name: "Convolution41"
  type: "Convolution"
  bottom: "Concat38"
  top: "Convolution41"
  convolution_param {
    num_output: 16
    bias_term: false
    pad: 1
    kernel_size: 3
    stride: 1
    weight_filler {
      type: "msra"
    }
    bias_filler {
      type: "constant"
    }
  }
}
layer {
  name: "ReLU41"
  type: "ReLU"
  bottom: "Convolution41"
  top: "Convolution41"
}
layer {
  name: "Concat39"
  type: "Concat"
  bottom: "Concat38"
  bottom: "Convolution41"
  top: "Concat39"
  concat_param {
    axis: 1
  }
}
layer {
  name: "Concat40"
  type: "Concat"
  bottom: "Concat32"
  bottom: "Concat39"
  top: "Concat40"
  concat_param {
    axis: 1
  }
}
layer {
  name: "Convolution42"
  type: "Convolution"
  bottom: "Concat40"
  top: "Convolution42"
  convolution_param {
    num_output: 16
    bias_term: false
    pad: 1
    kernel_size: 3
    stride: 1
    weight_filler {
      type: "msra"
    }
    bias_filler {
      type: "constant"
    }
  }
}
layer {
  name: "ReLU42"
  type: "ReLU"
  bottom: "Convolution42"
  top: "Convolution42"
}
layer {
  name: "Convolution43"
  type: "Convolution"
  bottom: "Convolution42"
  top: "Convolution43"
  convolution_param {
    num_output: 16
    bias_term: false
    pad: 1
    kernel_size: 3
    stride: 1
    weight_filler {
      type: "msra"
    }
    bias_filler {
      type: "constant"
    }
  }
}
layer {
  name: "ReLU43"
  type: "ReLU"
  bottom: "Convolution43"
  top: "Convolution43"
}
layer {
  name: "Concat41"
  type: "Concat"
  bottom: "Convolution42"
  bottom: "Convolution43"
  top: "Concat41"
  concat_param {
    axis: 1
  }
}
layer {
  name: "Convolution44"
  type: "Convolution"
  bottom: "Concat41"
  top: "Convolution44"
  convolution_param {
    num_output: 16
    bias_term: false
    pad: 1
    kernel_size: 3
    stride: 1
    weight_filler {
      type: "msra"
    }
    bias_filler {
      type: "constant"
    }
  }
}
layer {
  name: "ReLU44"
  type: "ReLU"
  bottom: "Convolution44"
  top: "Convolution44"
}
layer {
  name: "Concat42"
  type: "Concat"
  bottom: "Concat41"
  bottom: "Convolution44"
  top: "Concat42"
  concat_param {
    axis: 1
  }
}
layer {
  name: "Convolution45"
  type: "Convolution"
  bottom: "Concat42"
  top: "Convolution45"
  convolution_param {
    num_output: 16
    bias_term: false
    pad: 1
    kernel_size: 3
    stride: 1
    weight_filler {
      type: "msra"
    }
    bias_filler {
      type: "constant"
    }
  }
}
layer {
  name: "ReLU45"
  type: "ReLU"
  bottom: "Convolution45"
  top: "Convolution45"
}
layer {
  name: "Concat43"
  type: "Concat"
  bottom: "Concat42"
  bottom: "Convolution45"
  top: "Concat43"
  concat_param {
    axis: 1
  }
}
layer {
  name: "Convolution46"
  type: "Convolution"
  bottom: "Concat43"
  top: "Convolution46"
  convolution_param {
    num_output: 16
    bias_term: false
    pad: 1
    kernel_size: 3
    stride: 1
    weight_filler {
      type: "msra"
    }
    bias_filler {
      type: "constant"
    }
  }
}
layer {
  name: "ReLU46"
  type: "ReLU"
  bottom: "Convolution46"
  top: "Convolution46"
}
layer {
  name: "Concat44"
  type: "Concat"
  bottom: "Concat43"
  bottom: "Convolution46"
  top: "Concat44"
  concat_param {
    axis: 1
  }
}
layer {
  name: "Convolution47"
  type: "Convolution"
  bottom: "Concat44"
  top: "Convolution47"
  convolution_param {
    num_output: 16
    bias_term: false
    pad: 1
    kernel_size: 3
    stride: 1
    weight_filler {
      type: "msra"
    }
    bias_filler {
      type: "constant"
    }
  }
}
layer {
  name: "ReLU47"
  type: "ReLU"
  bottom: "Convolution47"
  top: "Convolution47"
}
layer {
  name: "Concat45"
  type: "Concat"
  bottom: "Concat44"
  bottom: "Convolution47"
  top: "Concat45"
  concat_param {
    axis: 1
  }
}
layer {
  name: "Convolution48"
  type: "Convolution"
  bottom: "Concat45"
  top: "Convolution48"
  convolution_param {
    num_output: 16
    bias_term: false
    pad: 1
    kernel_size: 3
    stride: 1
    weight_filler {
      type: "msra"
    }
    bias_filler {
      type: "constant"
    }
  }
}
layer {
  name: "ReLU48"
  type: "ReLU"
  bottom: "Convolution48"
  top: "Convolution48"
}
layer {
  name: "Concat46"
  type: "Concat"
  bottom: "Concat45"
  bottom: "Convolution48"
  top: "Concat46"
  concat_param {
    axis: 1
  }
}
layer {
  name: "Convolution49"
  type: "Convolution"
  bottom: "Concat46"
  top: "Convolution49"
  convolution_param {
    num_output: 16
    bias_term: false
    pad: 1
    kernel_size: 3
    stride: 1
    weight_filler {
      type: "msra"
    }
    bias_filler {
      type: "constant"
    }
  }
}
layer {
  name: "ReLU49"
  type: "ReLU"
  bottom: "Convolution49"
  top: "Convolution49"
}
layer {
  name: "Concat47"
  type: "Concat"
  bottom: "Concat46"
  bottom: "Convolution49"
  top: "Concat47"
  concat_param {
    axis: 1
  }
}
layer {
  name: "Concat48"
  type: "Concat"
  bottom: "Concat40"
  bottom: "Concat47"
  top: "Concat48"
  concat_param {
    axis: 1
  }
}
layer {
  name: "Convolution50"
  type: "Convolution"
  bottom: "Concat48"
  top: "Convolution50"
  convolution_param {
    num_output: 16
    bias_term: false
    pad: 1
    kernel_size: 3
    stride: 1
    weight_filler {
      type: "msra"
    }
    bias_filler {
      type: "constant"
    }
  }
}
layer {
  name: "ReLU50"
  type: "ReLU"
  bottom: "Convolution50"
  top: "Convolution50"
}
layer {
  name: "Convolution51"
  type: "Convolution"
  bottom: "Convolution50"
  top: "Convolution51"
  convolution_param {
    num_output: 16
    bias_term: false
    pad: 1
    kernel_size: 3
    stride: 1
    weight_filler {
      type: "msra"
    }
    bias_filler {
      type: "constant"
    }
  }
}
layer {
  name: "ReLU51"
  type: "ReLU"
  bottom: "Convolution51"
  top: "Convolution51"
}
layer {
  name: "Concat49"
  type: "Concat"
  bottom: "Convolution50"
  bottom: "Convolution51"
  top: "Concat49"
  concat_param {
    axis: 1
  }
}
layer {
  name: "Convolution52"
  type: "Convolution"
  bottom: "Concat49"
  top: "Convolution52"
  convolution_param {
    num_output: 16
    bias_term: false
    pad: 1
    kernel_size: 3
    stride: 1
    weight_filler {
      type: "msra"
    }
    bias_filler {
      type: "constant"
    }
  }
}
layer {
  name: "ReLU52"
  type: "ReLU"
  bottom: "Convolution52"
  top: "Convolution52"
}
layer {
  name: "Concat50"
  type: "Concat"
  bottom: "Concat49"
  bottom: "Convolution52"
  top: "Concat50"
  concat_param {
    axis: 1
  }
}
layer {
  name: "Convolution53"
  type: "Convolution"
  bottom: "Concat50"
  top: "Convolution53"
  convolution_param {
    num_output: 16
    bias_term: false
    pad: 1
    kernel_size: 3
    stride: 1
    weight_filler {
      type: "msra"
    }
    bias_filler {
      type: "constant"
    }
  }
}
layer {
  name: "ReLU53"
  type: "ReLU"
  bottom: "Convolution53"
  top: "Convolution53"
}
layer {
  name: "Concat51"
  type: "Concat"
  bottom: "Concat50"
  bottom: "Convolution53"
  top: "Concat51"
  concat_param {
    axis: 1
  }
}
layer {
  name: "Convolution54"
  type: "Convolution"
  bottom: "Concat51"
  top: "Convolution54"
  convolution_param {
    num_output: 16
    bias_term: false
    pad: 1
    kernel_size: 3
    stride: 1
    weight_filler {
      type: "msra"
    }
    bias_filler {
      type: "constant"
    }
  }
}
layer {
  name: "ReLU54"
  type: "ReLU"
  bottom: "Convolution54"
  top: "Convolution54"
}
layer {
  name: "Concat52"
  type: "Concat"
  bottom: "Concat51"
  bottom: "Convolution54"
  top: "Concat52"
  concat_param {
    axis: 1
  }
}
layer {
  name: "Convolution55"
  type: "Convolution"
  bottom: "Concat52"
  top: "Convolution55"
  convolution_param {
    num_output: 16
    bias_term: false
    pad: 1
    kernel_size: 3
    stride: 1
    weight_filler {
      type: "msra"
    }
    bias_filler {
      type: "constant"
    }
  }
}
layer {
  name: "ReLU55"
  type: "ReLU"
  bottom: "Convolution55"
  top: "Convolution55"
}
layer {
  name: "Concat53"
  type: "Concat"
  bottom: "Concat52"
  bottom: "Convolution55"
  top: "Concat53"
  concat_param {
    axis: 1
  }
}
layer {
  name: "Convolution56"
  type: "Convolution"
  bottom: "Concat53"
  top: "Convolution56"
  convolution_param {
    num_output: 16
    bias_term: false
    pad: 1
    kernel_size: 3
    stride: 1
    weight_filler {
      type: "msra"
    }
    bias_filler {
      type: "constant"
    }
  }
}
layer {
  name: "ReLU56"
  type: "ReLU"
  bottom: "Convolution56"
  top: "Convolution56"
}
layer {
  name: "Concat54"
  type: "Concat"
  bottom: "Concat53"
  bottom: "Convolution56"
  top: "Concat54"
  concat_param {
    axis: 1
  }
}
layer {
  name: "Convolution57"
  type: "Convolution"
  bottom: "Concat54"
  top: "Convolution57"
  convolution_param {
    num_output: 16
    bias_term: false
    pad: 1
    kernel_size: 3
    stride: 1
    weight_filler {
      type: "msra"
    }
    bias_filler {
      type: "constant"
    }
  }
}
layer {
  name: "ReLU57"
  type: "ReLU"
  bottom: "Convolution57"
  top: "Convolution57"
}
layer {
  name: "Concat55"
  type: "Concat"
  bottom: "Concat54"
  bottom: "Convolution57"
  top: "Concat55"
  concat_param {
    axis: 1
  }
}
layer {
  name: "Concat56"
  type: "Concat"
  bottom: "Concat48"
  bottom: "Concat55"
  top: "Concat56"
  concat_param {
    axis: 1
  }
}
layer {
  name: "Convolution58"
  type: "Convolution"
  bottom: "Concat56"
  top: "Convolution58"
  convolution_param {
    num_output: 16
    bias_term: false
    pad: 1
    kernel_size: 3
    stride: 1
    weight_filler {
      type: "msra"
    }
    bias_filler {
      type: "constant"
    }
  }
}
layer {
  name: "ReLU58"
  type: "ReLU"
  bottom: "Convolution58"
  top: "Convolution58"
}
layer {
  name: "Convolution59"
  type: "Convolution"
  bottom: "Convolution58"
  top: "Convolution59"
  convolution_param {
    num_output: 16
    bias_term: false
    pad: 1
    kernel_size: 3
    stride: 1
    weight_filler {
      type: "msra"
    }
    bias_filler {
      type: "constant"
    }
  }
}
layer {
  name: "ReLU59"
  type: "ReLU"
  bottom: "Convolution59"
  top: "Convolution59"
}
layer {
  name: "Concat57"
  type: "Concat"
  bottom: "Convolution58"
  bottom: "Convolution59"
  top: "Concat57"
  concat_param {
    axis: 1
  }
}
layer {
  name: "Convolution60"
  type: "Convolution"
  bottom: "Concat57"
  top: "Convolution60"
  convolution_param {
    num_output: 16
    bias_term: false
    pad: 1
    kernel_size: 3
    stride: 1
    weight_filler {
      type: "msra"
    }
    bias_filler {
      type: "constant"
    }
  }
}
layer {
  name: "ReLU60"
  type: "ReLU"
  bottom: "Convolution60"
  top: "Convolution60"
}
layer {
  name: "Concat58"
  type: "Concat"
  bottom: "Concat57"
  bottom: "Convolution60"
  top: "Concat58"
  concat_param {
    axis: 1
  }
}
layer {
  name: "Convolution61"
  type: "Convolution"
  bottom: "Concat58"
  top: "Convolution61"
  convolution_param {
    num_output: 16
    bias_term: false
    pad: 1
    kernel_size: 3
    stride: 1
    weight_filler {
      type: "msra"
    }
    bias_filler {
      type: "constant"
    }
  }
}
layer {
  name: "ReLU61"
  type: "ReLU"
  bottom: "Convolution61"
  top: "Convolution61"
}
layer {
  name: "Concat59"
  type: "Concat"
  bottom: "Concat58"
  bottom: "Convolution61"
  top: "Concat59"
  concat_param {
    axis: 1
  }
}
layer {
  name: "Convolution62"
  type: "Convolution"
  bottom: "Concat59"
  top: "Convolution62"
  convolution_param {
    num_output: 16
    bias_term: false
    pad: 1
    kernel_size: 3
    stride: 1
    weight_filler {
      type: "msra"
    }
    bias_filler {
      type: "constant"
    }
  }
}
layer {
  name: "ReLU62"
  type: "ReLU"
  bottom: "Convolution62"
  top: "Convolution62"
}
layer {
  name: "Concat60"
  type: "Concat"
  bottom: "Concat59"
  bottom: "Convolution62"
  top: "Concat60"
  concat_param {
    axis: 1
  }
}
layer {
  name: "Convolution63"
  type: "Convolution"
  bottom: "Concat60"
  top: "Convolution63"
  convolution_param {
    num_output: 16
    bias_term: false
    pad: 1
    kernel_size: 3
    stride: 1
    weight_filler {
      type: "msra"
    }
    bias_filler {
      type: "constant"
    }
  }
}
layer {
  name: "ReLU63"
  type: "ReLU"
  bottom: "Convolution63"
  top: "Convolution63"
}
layer {
  name: "Concat61"
  type: "Concat"
  bottom: "Concat60"
  bottom: "Convolution63"
  top: "Concat61"
  concat_param {
    axis: 1
  }
}
layer {
  name: "Convolution64"
  type: "Convolution"
  bottom: "Concat61"
  top: "Convolution64"
  convolution_param {
    num_output: 16
    bias_term: false
    pad: 1
    kernel_size: 3
    stride: 1
    weight_filler {
      type: "msra"
    }
    bias_filler {
      type: "constant"
    }
  }
}
layer {
  name: "ReLU64"
  type: "ReLU"
  bottom: "Convolution64"
  top: "Convolution64"
}
layer {
  name: "Concat62"
  type: "Concat"
  bottom: "Concat61"
  bottom: "Convolution64"
  top: "Concat62"
  concat_param {
    axis: 1
  }
}
layer {
  name: "Convolution65"
  type: "Convolution"
  bottom: "Concat62"
  top: "Convolution65"
  convolution_param {
    num_output: 16
    bias_term: false
    pad: 1
    kernel_size: 3
    stride: 1
    weight_filler {
      type: "msra"
    }
    bias_filler {
      type: "constant"
    }
  }
}
layer {
  name: "ReLU65"
  type: "ReLU"
  bottom: "Convolution65"
  top: "Convolution65"
}
layer {
  name: "dense"
  type: "Concat"
  bottom: "Concat62"
  bottom: "Convolution65"
  top: "dense"
  concat_param {
    axis: 1
  }
}
layer {
  name: "model"
  type: "Concat"
  bottom: "Concat56"
  bottom: "dense"
  top: "model"
  concat_param {
    axis: 1
  }
}
layer {
  name: "Convolution66"
  type: "Convolution"
  bottom: "model"
  top: "Convolution66"
  convolution_param {
    num_output: 256
    bias_term: false
    pad: 0
    kernel_size: 1
    stride: 1
    weight_filler {
      type: "msra"
    }
    bias_filler {
      type: "constant"
    }
  }
}
layer {
  name: "bottleneck"
  type: "ReLU"
  bottom: "Convolution66"
  top: "Convolution66"
}
layer {
  name: "Deconvolution1"
  type: "Deconvolution"
  bottom: "Convolution66"
  top: "Deconvolution1"
  convolution_param {
    num_output: 256
    bias_term: false
    pad: 1
    kernel_size: 4
    stride: 2
    weight_filler {
      type: "msra"
    }
    bias_filler {
      type: "constant"
    }
  }
}
layer {
  name: "deconv1"
  type: "ReLU"
  bottom: "Deconvolution1"
  top: "Deconvolution1"
}
layer {
  name: "Deconvolution2"
  type: "Deconvolution"
  bottom: "Deconvolution1"
  top: "Deconvolution2"
  convolution_param {
    num_output: 256
    bias_term: false
    pad: 1
    kernel_size: 4
    stride: 2
    weight_filler {
      type: "msra"
    }
    bias_filler {
      type: "constant"
    }
  }
}
layer {
  name: "deconv2"
  type: "ReLU"
  bottom: "Deconvolution2"
  top: "Deconvolution2"
}
layer {
  name: "reconstruct"
  type: "Convolution"
  bottom: "Deconvolution2"
  top: "reconstruct"
  convolution_param {
    num_output: 1
    bias_term: false
    pad: 1
    kernel_size: 3
    stride: 1
    weight_filler {
      type: "msra"
    }
    bias_filler {
      type: "constant"
    }
  }
}

